Regression/general_nn.pt (torch, 43823 bytes, 5 tensors)

layers.0.weight f4 [100, 1]
00000000: fdc5 eb3c 1b1b c83e 54f7 6bbe fd5e 85be
00000010: 4a8f 453f ab32 62bf 5d36 b13e 3a21 653f
00000020: f2aa 26bd f44d 223e 19df 13bf e2f6 643d
00000030: fd6b 323d daee 533f a538 d1be 2a2a f4be
00000040: 10b6 223f ba0f f63e cbae 723f 1873 dcbe
00000050: 7404 e83e f3d6 733f b4e7 713e f00e 653e
00000060: f00a c9bd d9fe abbe 7670 653f 3c5a cebe
00000070: 477b 6b3f 6d87 babe f51c 75bf d111 64bf
00000080: 4bf3 6c3d 3416 99be 0d2d a53e 5c89 bcbe
00000090: d5cd b6bc 0d64 203f 4b06 4d3f 2b3f 583f
000000a0: 8f10 713f bc7f 243d ea19 233d 1b44 9dbe
000000b0: 660a 4cbd 915e c9be 9c09 da3e 98ff 32bf
000000c0: 14a6 30bd fe0d 623f c909 e2be da9b e9be
000000d0: 5fad f2be a721 5ebf c27c 883c 44d0 e1be
000000e0: 5da7 c53d 145e b6be 74c2 8a3d 5cad de3e
000000f0: 3385 d23b 2809 af3e 9746 383c e3a0 c23e
00000100: 02a7 abbe a7e8 b3be bd35 db3e d956 463f
00000110: d355 b43e bf13 153f f857 d03e 75ad 3bbf
00000120: f1b1 063f 5531 24be 83d7 073f 547b 1dbf
00000130: ca96 283d 7448 c83e 2af7 843c e4ef 503f
00000140: bf81 1b3f 2e6b 1fbf 93a0 3e3e 1245 583d
00000150: b32d 68bf 1ef0 29bf d528 43bd edc7 1e3d
00000160: dd98 423f 8324 3a3e 1992 733f f828 b5be
00000170: 2e06 a4be 6e58 f0be c36b 60be 4235 40bf
00000180: 9ed3 283f 1816 543f 4adc 23bf 2623 b73e
0.028780932 0.3908318 -0.23043567 -0.26049033 0.77171767 -0.88358563 0.34611788 0.89503825
-0.04069037 0.1585005 -0.57762295 0.05589951 0.043560017 0.82786334 -0.4086353 -0.4768842
0.63559055 0.48058873 0.9479796 -0.4305656 0.45315897 0.9524986 0.23623544 0.2236898
-0.09816539 -0.3359287 0.89624727 -0.40303218 0.9198498 -0.36431447 -0.9574731 -0.89089686
0.05784921 -0.29899752 0.32260934 -0.36823547 -0.022314945 0.62652665 0.8008773 0.84471387
0.9416589 0.04016088 0.039819635 -0.30716023 -0.049814604 -0.3932996 0.42585456 -0.69921255
-0.043127134 0.883026 -0.4414809 -0.45626718 -0.47397897 -0.867701 0.016661052 -0.44104207
0.09651063 -0.3561865 0.0677537 0.43491638 0.00642457 0.34186673 0.011247299 0.38013372
-0.33525854 -0.35138437 0.42814437 0.7747627 0.3522173 0.58233255 0.40692115 -0.7331155
0.5261527 -0.16034444 0.5306322 -0.6151631 0.04115943 0.39117777 0.016231138 0.81616044
0.6074485 -0.6227292 0.18615942 0.052800246 -0.9069473 -0.66382015 -0.047646362 0.038764883
0.760145 0.1817799 0.951448 -0.3538282 -0.32035965 -0.46942466 -0.21916108 -0.75081265
0.659479 0.8284621 -0.6400801 0.35769004

layers.0.bias f4 [100]
00000000: 3408 203f d301 97bf 3efe ccbd b97a 7abe
00000010: 8c1b 91be 1291 e63d e0b3 71bf 48aa 6fbf
00000020: b3ea 43bf 132f acbe e94a 8ebe 6d59 673f
00000030: 311c 703f 05b5 253f aed3 a43f d19f d33f
00000040: 423d b63c d0b0 9d3f 100b 96be 34c0 b93f
00000050: 6984 913f d63e 91bf f228 a13e ecd6 acbe
00000060: 7b36 763e 96bf f5be 14be b6bd a3a2 68bf
00000070: b138 2e3e 1fff 32bf 9083 9d3e 1737 55bf
00000080: eacc e13e 5fe9 2a3f a6c1 86be e05d 3ebf
00000090: d2f8 06bf 5738 263f 781c 5d3e d2f4 27bf
000000a0: 6c69 9bbe aacb 5f3f 7747 173f 9761 3a3f
000000b0: 3c1a 97bf 56e9 27be 23fe b3bf 4fba ffbe
000000c0: ad20 27bf 6aa4 53bf 715a 8abf dc5c 093e
000000d0: c828 44bd 8caf 613f a80c f1bc 1f6b bb3f
000000e0: 8d21 593e bf5b 783f 4b70 8f3f 7484 893f
000000f0: 240b fd3e 7780 0b3f 2eea 793d 1f24 8fbf
00000100: f5fa 1bbf 570d 2cbf 1647 b6bf 2712 f63d
00000110: 41d3 78bf d485 4fbe 5c34 a4bf 8dd3 32be
00000120: e517 793f 52d0 2b3e 5245 333f 82c7 4cbd
00000130: a57e 8b3f b569 583f cd20 0e3f f899 553f
00000140: d795 bbbe 815f 633e 9e87 79be d7c1 7a3f
00000150: 8cb6 f43e 562c 48bd 29a8 99bf 08aa 7d3f
00000160: dc29 82bf 9873 7cbe 8d91 7dbf f88c 28bf
00000170: 831b 4a3f d471 9bbf 0829 39be 759a f8be
00000180: e222 9ebe 4dda 30bf d74c 163f ed0f 82bf
0.62512517 -1.1797432 -0.1000943 -0.24460877 -0.2834133 0.11258139 -0.9441509 -0.93619204
-0.7653 -0.33629665 -0.27791527 0.9037083 0.93793017 0.6472934 1.28771 1.6533147
0.022246007 1.2319584 -0.29305315 1.4511781 1.1368533 -1.1347301 0.3147655 -0.33757722
0.2404422 -0.4799773 -0.08922973 -0.90873164 0.17013814 -0.69920534 0.30764437 -0.83287185
0.4410165 0.66762346 -0.26319617 -0.7436199 -0.5272342 0.6492972 0.21592891 -0.6560794
-0.30353868 0.8742014 0.5909342 0.7280516 -1.1804881 -0.16397604 -1.4061931 -0.4994683
-0.65284234 -0.8267275 -1.080885 0.1341433 -0.047890455 0.8815849 -0.02942498 1.4642066
0.21204205 0.97014993 1.1206144 1.0743546 0.49422562 0.54492897 0.061014347 -1.1182898
-0.60929805 -0.67207855 -1.4240444 0.12015181 -0.9719735 -0.20265895 -1.2828479 -0.17463513
0.97302085 0.16778687 0.7002765 -0.049994953 1.0898024 0.84536296 0.555188 0.8343806
-0.36637756 0.222044 -0.2436814 0.97952026 0.47795522 -0.048870407 -1.2004443 0.9908757
-1.0169024 -0.2465347 -0.9905022 -0.658401 0.7894823 -1.2144113 -0.18082058 -0.4855534
-0.30885988 -0.690831 0.58711 -1.016111

layers.2.weight f4 [100, 100]
00000000: 53ca 1dbe 357d 913b f8b8 463d 2d35 17bd
00000010: c952 c1bd 022d 303d 12f9 a13c 5e1c 96bd
00000020: f82c 0e3e 5f18 043e b3b7 06bc 5f64 28bd
00000030: 77d5 eebd a04d 37be ada6 78bd e577 21bd
00000040: d841 213c 826b 2e3e 9775 d93b 7273 a83d
00000050: 64e4 473d 03be cb3b 2573 2ebd daa9 583c
00000060: 195b abbd 6df4 423d 6629 16bd 28f1 d2bc
00000070: 6fec e03c b8b3 813c d901 913d 880f 303e
00000080: 7829 aabd 7f16 33bd 87c1 a03d 9db2 49bd
00000090: cff4 063d c5c6 cf3c 4b8d 02be 0e1c 99bd
000000a0: bb9d d4bd eb67 01bd f99c 6dbd 3f0b 00bd
000000b0: 0363 d63d 1530 7ebd 821b 5c3d 59d3 d83d
000000c0: 8af0 183e dbb3 18bd 620b b7bd e323 eb3b
000000d0: 59b6 d13d e0d5 9e3c b878 733b 4cfd b43c
000000e0: 3a88 f6bb 90c8 8e3d 0712 5bbe 7f64 13bd
000000f0: d92e c3bd 45be 95bc 6706 323d 2556 d33c
00000100: efc8 d8bc d98b 31bd 3bdd 893d cd25 12be
00000110: 8aee 6a3d 3ead 64bd 4da7 eb3c fa7b 05bd
00000120: c546 393d a4b3 14bd e028 93bc d015 bd3d
00000130: b562 5abe ac09 023e 0011 38bc 69eb e3bd
00000140: da24 c7bd 5282 58bd f7c9 a13d c9b5 8fbd
00000150: a4ce 383c 14fe f53d 6aa8 eb3d 7e74 2dbe
00000160: e058 cd3d 7aa5 833d 6b22 b83d 5228 0a3c
00000170: 103b 99bd 3adc 22bd 4d77 833c e9b9 703d
00000180: 7a13 a33d 8c28 97bd 310a 253d e431 d33d
00000190: d2df 55bc 6fa4 813d 4c27 8e3d 469f b03d
000001a0: 7865 683d 511b 39bd bfeb 91bc 176e 7b3d
000001b0: 5479 013e 157e 37bd 04f6 a3bd b644 34bd
000001c0: a521 e1bd 165c d2bd d9ec 8dbd dae1 093d
000001d0: 8480 9e3d b697 33bd 69e3 dd3c 96ce 89bd
000001e0: 8312 b4bd 3845 e73c 50cc 90bd 0b1c 9d3b
000001f0: 163d cdbd 4326 96bd 80ed b1bd bcca 84bd
00000200: 1afb d0bd 04cb 443d 2755 193d fa9b 003d
00000210: 3a14 8fbd d1b5 3bbd ca34 24bd 5b6b e93c
00000220: 1395 81bc e01f 13bc 651c 843c 24a7 ae3d
00000230: bfee ba3d b2bd 83bd e3a0 c7bd 90ef db3d
00000240: c164 cf3d 1bb6 773d 7332 9a3d 7f89 81bd
00000250: 8f8d f83d 3f5d 49bd d7d0 05bd ede2 48bb
00000260: 445a 393d 64f5 71bd 3132 3fbc ec7c 883d
00000270: 94bd 7d3b 243e 7dbc 3996 18be ff00 d23d
00000280: c025 97bd 613a 6f3d 89f8 bc3d 4cdb afbd
00000290: 1843 6e3c 466f 8c3a 7270 58bc 2a33 a6bc
000002a0: 8100 c1bc 55fc f0bc cbb0 b6bd 6222 54bd
000002b0: 4b06 533d b72e 94bd f12d 48bd 4f04 c13d
000002c0: 47a0 d8bd bc3f 4cbc 5da7 a13c fa79 b6bb
000002d0: d77f 5f3c 8404 3d3d 5bdd adbd 97a5 0dbd
000002e0: a4af 383c c50b 543c c49d fc3d 6790 bfbd
000002f0: e781 6cbd af33 b7bd ae02 793d 1cb9 753d
00000300: a0cd 9f3d 5e8a 89bc a2b9 92bd db94 7bbd
00000310: d07f b93d f055 113d db9d ae3c 3ce5 973d
00000320: 0da0 dcbc 6141 d9bd 7f00 d33d 473b 47bc
00000330: dd23 b73d b043 e03c 9dc3 e5bd ae00 2d3e
00000340: 4ace d23d 0b2b d6bd 3e2a 80bc 704c 32bd
00000350: 39aa cabc a523 473d 9a72 883d 32be 193e
00000360: 53e5 c1bd 062f 453d 7916 fe3c e361 9d3d
00000370: 0f0e d8bd 01a3 1f3e 6f33 76bd 381e c7bc
00000380: 8b91 8abd f3bf 4d3d fda1 bf3c 1a07 823d
00000390: 27f8 453d 849b c13b 5c39 0fbd 6af1 d13c
000003a0: 54ce f63c 7497 3ebd 625a 40bb dfd1 3c3d
000003b0: 5900 22bb 1287 0c3d 5302 54bd 34c5 f73d
000003c0: 9f32 943c 74e4 32be 8ba1 f0bd 88bc f6bc
000003d0: 4fb5 993d b071 a43c cabe 93bc cf34 373c
000003e0: 7aba 123e 4020 75bc c121 873d c268 f5bc
000003f0: 51a4 d03d e17d 0abe 3f8d a9bd e7cf 233d
-0.15409212 0.0044399747 0.048516244 -0.036915947 -0.09439618 0.043011673 0.019772086 -0.07329629
0.13884342 0.12899922 -0.008222508 -0.041111346 -0.11661809 -0.17900705 -0.06070583 -0.03942098
0.0098423585 0.17033198 0.0066363323 0.082251444 0.048801795 0.0062177195 -0.04259028 0.0132240895
-0.08366985 0.047596384 -0.036660574 -0.025749758 0.02745649 0.015832767 0.070804305 0.17193425
-0.08308691 -0.043722626 0.078494124 -0.049242605 0.03294831 0.025363335 -0.12749211 -0.07476054
-0.10381647 -0.031593245 -0.05801103 -0.031260725 0.10468104 -0.062057573 0.05373717 0.10587186
0.14935508 -0.0372809 -0.08937718 0.007175909 0.10239858 0.019389093 0.0037150811 0.022093438
-0.0075235637 0.06971848 -0.21393596 -0.035984512 -0.0953042 -0.018279204 0.043463137 0.025797913
-0.026463 -0.04334626 0.067316495 -0.14272232 0.057356395 -0.05582928 0.028766299 -0.032588936
0.045233507 -0.03630413 -0.017963827 0.09232676 -0.21326716 0.12699002 -0.011234522 -0.11128885
-0.09723826 -0.052858658 0.0789985 -0.07017095 0.011279736 0.12011352 0.11506732 -0.1693897
0.10026717 0.064280465 0.0899094 0.008432465 -0.074819684 -0.039760806 0.016048098 0.058771048
0.07962699 -0.073807806 0.040292922 0.1031225 -0.013053851 0.06330191 0.06941089 0.08624129
0.056737393 -0.045192067 -0.017812608 0.061384287 0.1264394 -0.044797976 -0.08005908 -0.04401084
-0.10992745 -0.1027147 -0.06929941 0.033662654 0.07739356 -0.043845855 0.027085977 -0.06728856
-0.08792593 0.028231248 -0.070702195 0.0047946027 -0.10021417 -0.073315166 -0.08687878 -0.06483981
-0.10204144 0.048045173 0.037434723 0.03139875 -0.0698628 -0.04582769 -0.040089406 0.028493574
-0.015818154 -0.008979768 0.01612682 0.08527973 0.091275685 -0.06432666 -0.097474836 0.10739052
0.10126639 0.060476404 0.07529154 -0.063250534 0.12136375 -0.049161192 -0.03266987 -0.0030652836
0.0452521 -0.059071913 -0.011669681 0.06664452 0.0038717734 -0.01545671 -0.14901055 0.10254096
-0.07380247 0.058405284 0.09227092 -0.085867494 0.014542364 0.0010714314 -0.013210403 -0.020288069
-0.02355981 -0.029417196 -0.08920439 -0.051790603 0.051519673 -0.07235473 -0.04887194 0.0942465
-0.105774455 -0.012466367 0.019733125 -0.00556874 0.013641319 0.046146885 -0.08489486 -0.034581747
0.011272345 0.012942259 0.12334779 -0.093537144 -0.057741072 -0.08945405 0.06079357 0.059990987
0.07802892 -0.016789611 -0.07164313 -0.061421257 0.090575814 0.035482347 0.021315506 0.0741677
-0.026931787 -0.10608173 0.10302829 -0.012160129 0.08942387 0.027376026 -0.11218951 0.1689479
0.10293253 -0.104574285 -0.015645143 -0.043529928 -0.024739372 0.048617978 0.066624835 0.1501396
-0.09467568 0.04814055 0.031016575 0.07684686 -0.105495565 0.15589525 -0.060107645 -0.024306402
-0.06766041 0.050231885 0.023392672 0.06349011 0.04833236 0.0059084315 -0.03496681 0.02562781
0.030127682 -0.046531156 -0.0029350747 0.046098586 -0.0024719446 0.0343085 -0.05176003 0.120981604
0.018090544 -0.1746996 -0.11749562 -0.030119196 0.07505285 0.020073742 -0.018035311 0.011182024
0.14328948 -0.014961302 0.06598235 -0.029957179 0.10187591 -0.13524581 -0.08278894 0.039993193

layers.2.bias f4 [100]
00000000: 0d10 46be 98b6 82bd d8c6 8cbe 8f04 f7bd
00000010: eaba 9dbd 97f1 11be bf09 8dbd 6d5c 6a3e
00000020: 1656 32be 6a7e b23d 5138 4c3e 2b56 973d
00000030: f3c6 cf3d 597d 7e3e 5b36 503e 86b7 11bd
00000040: 1819 15be 2585 3f3e 043e 3c3e 2486 a8bd
00000050: e61f cd3c c525 9ebd b9c3 1f3e f7bc 67be
00000060: 03aa 903c 89c4 0dbc afaa 13bd 1a35 a4bd
00000070: e612 3dbd 6cd8 953e 5cfc b3bd f017 f93c
00000080: 5601 37be 652e 03bc 0fa4 503d 4e4d 8f3d
00000090: 29f5 adbe 4e93 d63d 53ce c4bc 742b 5fbc
000000a0: cdf1 b3be a985 f53d 8432 c83c 2048 8ebe
000000b0: 9397 153e c56f 68bc 16f9 bd3d 212b 4e3d
000000c0: 4ccd 473d 57b0 a03d 14b6 f5bd bd49 6cbc
000000d0: 77d2 abbd f817 85bc a9bd 843e e3e8 6e3d
000000e0: 53fe 19bd f2a5 613e 7070 76be 13ff 9e3d
000000f0: 2d7c 0bbd 5ea4 923d 588b 8b3d b097 363e
00000100: e9a0 6e3d 8561 0e3e 79ed 873c d545 9d3d
00000110: 5710 5dbe 9294 b53c babb 98bd f30f dfbc
00000120: d170 893b 0556 17be b05a 213c 3c50 ca3d
00000130: 3734 4e3d 41c2 1cbe 1407 a8bd f19d 99be
00000140: a6f4 a5be 40d9 24be 945b 983c 58d7 adbd
00000150: 429c 1bbe 076a 693c f658 063e 94ba c5bd
00000160: f624 18be feaf 483e e08e 523d eb7c 093e
00000170: b4b4 373d 168b a83c 19e6 18be 7d02 a8bc
00000180: 4c9e 0dbe a693 0f3e 4a7d e6bd 92b3 6f3d
-0.1934206 -0.06382483 -0.27495456 -0.12061416 -0.07701667 -0.14252315 -0.068866245 0.2288682
-0.17415652 0.08715518 0.19943358 0.07389482 0.101453684 0.24852504 0.20333235 -0.035575412
-0.14560354 0.18703134 0.18383032 -0.0822871 0.025039624 -0.07722048 0.15602006 -0.22630678
0.017659193 -0.008652815 -0.03605145 -0.08017941 -0.0461606 0.2926668 -0.08788368 0.030406922
-0.17871603 -0.008006667 0.05093771 0.069971666 -0.33976105 0.10477315 -0.024024164 -0.0136212
-0.35145417 0.11988384 0.02443815 -0.27789402 0.14608602 -0.014186804 0.09276025 0.0503341
0.04877977 0.07846134 -0.11997619 -0.014421877 -0.08389752 -0.01624678 0.2592595 0.058327567
-0.037596058 0.2203596 -0.24066329 0.07763495 -0.03405397 0.07160257 0.06813687 0.17831302
0.058258925 0.13904388 0.016592728 0.07679335 -0.21588264 0.02216557 -0.07457681 -0.027229285
0.004194357 -0.14778908 0.009848282 0.09878585 0.050342765 -0.15308477 -0.08204475 -0.30003312
-0.32413214 -0.160985 0.018598355 -0.08488339 -0.15196326 0.01424647 0.13119873 -0.096547276
-0.1485785 0.19598386 0.051405787 0.13426559 0.044850066 0.020574134 -0.14931525 -0.020508999
-0.13829917 0.14021167 -0.11254366 0.05852086

layers.4.weight f4 [1, 100]
00000000: c3e6 e5be a2d1 21be a109 a0be 983a 02bd
00000010: 0a41 2c3d 48ae 0cbe 643d 33bd a99d 4a3e
00000020: e0fa c0be 9dc8 a03d 58db 7f3e 12ba a33d
00000030: a6e1 6d3d 50ea 4a3e 50fc b93e 1c0d 8dbd
00000040: fcb4 6bbe db68 803e f52d d23e 7dc7 07be
00000050: 72b5 003d 312b 8ebd 3cba 003e 1847 35be
00000060: 2f0c 483e b50b 10be a201 14be 865f 8abd
00000070: 97aa 4abd 4d73 3e3f 0c77 5fbd 11d1 27be
00000080: 48f7 a0be e249 a9bc 2b63 2fbd 7b0c da3d
00000090: 8686 4bbf fe94 e73d b547 02bc ec59 ba3c
000000a0: 8b42 51bf b54b b53d c868 be3d 7aca b5be
000000b0: 323b 923e ed3b 1cbd 71c5 a23e c2e0 6bbb
000000c0: 3aed 943d 344c 8b3d 41e9 8bbd 02cb 073d
000000d0: 3fa2 cdbe 41d2 51bc 357c 5e3e a7bd 893d
000000e0: 8ffa 2c3e 79cc 7c3e 8b69 9cbe 3cc2 073e
000000f0: 97a3 f1bd af65 4c3c 1dc4 633c 3423 223e
00000100: fcb9 803d eb54 893e a2f9 bfbe 422b 2e3d
00000110: 6e60 56be 9c99 3abd 0914 0d3e aabf 21be
00000120: c343 c7bc 627d b0bd eddb 00bd 961c 183e
00000130: d80b 503e ef70 56be 97c5 c9bb 0283 27bf
00000140: 98c1 75bf e229 babd ce6d 813c a4bd 4d3b
00000150: 7dca 1bbe de98 443f 450c 803e 3af5 94bd
00000160: a175 fcbd d510 0b3e 7a2d bf3d d73b a03e
00000170: ebb9 8b3d 5333 babb 1dd7 84bd e47c febd
00000180: e681 60be 5e6d c73d 017f 02be 0939 023e
-0.4490262 -0.15802625 -0.31257346 -0.03179416 0.042054214 -0.13738358 -0.04375972 0.19786705
-0.37691402 0.07850764 0.24986017 0.079944745 0.058076523 0.19815946 0.36325312 -0.06887266
-0.23018259 0.25079998 0.41050687 -0.13259692 0.03142304 -0.06941832 0.12571043 -0.17702901
0.19535898 -0.14066966 -0.14453748 -0.06756501 -0.049479093 0.74394685 -0.05455689 -0.16388346
-0.3143866 -0.020665113 -0.042819183 0.10646912 -0.7950214 0.11307715 -0.007951667 0.022747956
-0.8174216 0.088523306 0.09297329 -0.3550604 0.28560787 -0.038143087 0.3179126 -0.003599212
0.0727181 0.06801644 -0.06831599 0.033152588 -0.40162846 -0.012806476 0.21727069 0.067256264
0.16892456 0.24687375 -0.30549273 0.13257688 -0.117987804 0.012475415 0.0139017375 0.15833741
0.06285474 0.268226 -0.37495142 0.042521723 -0.20935223 -0.04555665 0.13777174 -0.1579577
-0.024324303 -0.08617665 -0.031459738 0.14854655 0.20317018 -0.20941518 -0.0061575877 -0.6543428
-0.95998526 -0.0909002 0.01579943 0.0031393552 -0.15213962 0.76795757 0.2500936 -0.07273336
-0.123271234 0.1358064 0.09334846 0.31295654 0.068225704 -0.005682388 -0.06486342 -0.12426165
-0.21924552 0.09737657 -0.1274376 0.1271707
