Regression/robot_kinematics_model.pt (torch, 71567 bytes, 6 tensors)

layers.0.weight f4 [128, 3]
00000000: 9d17 b1be 1c54 18bf 3263 a53e df7c 93be
00000010: 1288 963e 460e 1dbf 0d75 d9be 2f8d 92be
00000020: 7070 3c3e 8e16 173e 98fd 6a3e 068f 91be
00000030: 30ae 73be ca94 0b3f d30e acbe ab1a c93b
00000040: cbfb 0e3f 0213 ed3e 1333 0abf debd 2cbf
00000050: b04e 22be 49ce 5abe 694a 063f 5553 9bbd
00000060: 7de4 fbbe f74f 8c3e 6fad 31be 5933 3cbd
00000070: 13dd f4be 5a30 d5be 0c27 d63e 05d1 a9be
00000080: b998 353e 7146 d7be 2fec f0be 5a10 e0be
00000090: 9c83 dabe 1d05 123e 1f97 c8be f62e 71be
000000a0: 8ac9 be3e f32a 003f 44cb 1c3f 40fd 3abc
000000b0: 1bac 61bc 767b 103f 3be5 40be 54c6 6abd
000000c0: 566a 373f 0d01 2c3f 5dfa 96bd 83f4 18bf
000000d0: 91a5 b2be a579 c0be 0f32 543e 2104 a63e
000000e0: c155 ae3c e481 d53e 6117 a2be 7797 a43e
000000f0: 9d51 ed3e 5dee ff3e be37 e83e 9917 24bf
00000100: 2971 1fbe c38b d13e a118 c73e f10a b63e
00000110: 083e 8bbc 75c1 bc3d e983 11be 7cfd 1bbf
00000120: ccf3 d93e 4720 723d e998 02bf e4d4 01be
00000130: 9f2c c33e f74f 60be b6c7 fbbe 1371 223f
00000140: fc6e 683d bd42 d0bd 944c b6be a9db 133f
00000150: d23e 363f 6b48 9dbe e277 67bd f8f8 823d
00000160: bc04 5c3e 08d0 783e 4cda ea3e 8671 84be
00000170: 7073 a93d 3d42 9d3e 1bec 213f 6e3b b93e
00000180: 1ffc 9cbd 87c5 d63e 503e b93e 6f8b 17bf
00000190: 736f ec3e f247 e93d 0043 a5be cb5b 57be
000001a0: 8378 e33e 42e7 00bf 93ba 36bc 6895 c53e
000001b0: 3dad 8dbe 9a20 9ebe bdde d13d 095b d1bb
000001c0: a699 b8be 09fa b93e 74e2 02bf 4cb8 13bc
000001d0: 65b9 0fbf b4c4 013f 66a5 9c3e 6e67 b93e
000001e0: e17f 61bd d304 103f e979 c43e 5575 0bbf
000001f0: 986f 16bf e036 b1bd e82c 093f fa22 64be
00000200: 6ac1 07be b2df 383e ff9c 59bd 6417 a13c
00000210: d08d c73e c80b a63e b193 623e c142 b23e
00000220: 6784 dd3e 0800 09bf 6a36 03bf 0b6e 52bd
00000230: 5cc4 de3d 2d92 83be 8d8d ebbe de5c 6e3d
00000240: ada7 193f b165 09be 437c 6c3c d56d 403f
00000250: c245 e2bc 1e7c febe 14e0 dabe b99f 713d
00000260: 9d99 333d 8558 d43e bdeb 9a3d 59ae 023f
00000270: eb11 853e c6a7 b53e 39b4 813e 1ff8 e33e
00000280: acd4 04bf 137f d7be 6113 e03e a372 cabe
00000290: 91f9 a2be 4a91 343e 2621 2cbf 4ea3 18bf
000002a0: 9a8c 0a3f 6d41 4cbe 180c b3bc 8f73 95be
000002b0: 0047 583b c6f6 96be 8f55 1bbe a679 9b3e
000002c0: 7e21 72be 7189 ea3e 9342 b6be 422e ad3e
000002d0: 214b d0be b9b1 d4be b38a a73a ee90 c93d
000002e0: 1c4b 65be 247d edbe 1351 a33d 7cfc 043f
000002f0: efed f3be 471b 1bbf b02d 73be 4483 5b3e
00000300: 65ec 083f 7c05 263f a35c c0be f3df f93d
00000310: beec b93e c135 37be 0700 a0be e333 543e
00000320: 15bb c2be c036 963e 3b20 fe3d c24a 17bc
00000330: deac 033f a6be 08bf 93bc c93e 8cd0 af3e
00000340: 6347 b73e d4f1 103d 45b9 593e ec68 8fbd
00000350: e725 bc3e 0d59 04bf 7494 1abf f472 033e
00000360: 76ef edbd f08a 47be 1e65 d03e ee8f d1be
00000370: 525a b93e b9e6 bb3e 4170 b33e 1ae1 c93e
00000380: 5436 ee3e fa27 123d 1c3a dbbe 48d7 c6be
00000390: c26c cdbe 2e59 a53d eeb5 fabe 4c73 90be
000003a0: aa78 84be ba39 ea3e e6bb febd b3b8 bdbe
000003b0: c450 6a3e b897 debe cf15 fbbe 3917 89bb
000003c0: cebe 09bf 7c1a ec3e 04a6 a1be 38a0 e9be
000003d0: 6922 19bd 2d4d e0be 96de 063e a218 123d
000003e0: 4c6a ae3e a954 103f f601 ea3e dabc babe
000003f0: eace 50be 251e a33e a473 b9bc 6e6d b5bd
-0.34588328 -0.5950334 0.32302243 -0.28806207 0.29400688 -0.61349905 -0.42472115 -0.2862334
0.18402267 0.14754698 0.22948301 -0.2842943 -0.23796916 0.5452391 -0.3360506 0.0061372123
0.55852956 0.46303564 -0.53984183 -0.67477214 -0.1585033 -0.21367754 0.5245729 -0.07584254
-0.4919776 0.27404758 -0.17351316 -0.045947406 -0.47824916 -0.41638452 0.41826665 -0.33167282
0.1773404 -0.4204593 -0.47055194 -0.43762475 -0.42678535 0.14259763 -0.39177796 -0.2355307
0.37263137 0.50065535 0.6124766 -0.011412919 -0.013773943 0.56438386 -0.18837444 -0.057318047
0.7164663 0.67189103 -0.07371972 -0.59748095 -0.34891942 -0.37592807 0.20722221 0.32425025
0.021281125 0.4170066 -0.31658462 0.32146809 0.46351328 0.49986544 0.45355028 -0.6409851
-0.15570511 0.40926942 0.38885978 0.35555223 -0.016997352 0.092165865 -0.14210476 -0.6093366
0.42568815 0.059112813 -0.5101457 -0.12678868 0.3811998 -0.21905504 -0.49175805 0.6345379
0.056746468 -0.10168979 -0.356053 0.5775705 0.71189606 -0.30719313 -0.056510814 0.06395143
0.21486181 0.24298108 0.45869672 -0.25867862 0.08273971 0.30714598 0.63250893 0.36178154
-0.07665276 0.41947576 0.36180353 -0.59197134 0.4617878 0.113906756 -0.3227768 -0.2103111
0.4442788 -0.5035287 -0.011152881 0.3859055 -0.27671233 -0.30884248 0.10247562 -0.006389026
-0.36054724 0.36323574 -0.5112679 -0.009016108 -0.56142265 0.5069077 0.3059494 0.36211723
-0.055053595 0.5625736 0.3837426 -0.5447591 -0.5876403 -0.08653045 0.53584146 -0.22278967
-0.13257375 0.18054083 -0.05312824 0.019664474 0.38975382 0.32430863 0.22126652 0.34816554
0.43265077 -0.5351567 -0.51254904 -0.051374476 0.10877296 -0.2569746 -0.46006432 0.058194034
0.6002148 -0.13417698 0.014433923 0.7516759 -0.027621154 -0.4970407 -0.42749083 0.058990214
0.04384767 0.41473785 0.07564495 0.51047283 0.25990233 0.35479563 0.2533281 0.4452524
-0.5188701 -0.42089137 0.43764785 -0.39540586 -0.3183103 0.17633548 -0.6723808 -0.59624183
0.5412079 -0.19946833 -0.021856353 -0.29189727 0.0033001304 -0.29485148 -0.15169357 0.30366248
-0.23645589 0.45807984 -0.35597667 0.33824354 -0.4068232 -0.41541842 0.0012782424 0.09842096
-0.22391933 -0.46384537 0.07974448 0.5194776 -0.47642466 -0.60588497 -0.23747897 0.21436793
0.5348571 0.6485212 -0.37570676 0.12200918 0.36313432 -0.17891599 -0.3125002 0.20722918
-0.38033357 0.29338646 0.12408491 -0.009234132 0.5143565 -0.53415906 0.39401683 0.34338796
0.3579665 0.035386875 0.21262081 -0.07002434 0.36747667 -0.5169838 -0.6038277 0.1283682
-0.11617939 -0.19486594 0.40702146 -0.40930122 0.3620172 0.36699465 0.3504658 0.3942955
0.46525824 0.035682656 -0.4281777 -0.38836122 -0.40122038 0.0807365 -0.48966926 -0.28212965
-0.2587331 0.45747167 -0.124381825 -0.37054977 0.22882372 -0.43475127 -0.49040076 -0.0041836766
-0.5380677 0.46113956 -0.31571972 -0.4563005 -0.03738633 -0.4380888 0.13170847 0.035668023
0.34065473 0.5637918 0.4570462 -0.36472207 -0.20391431 0.31858936 -0.02263815 -0.08858763

layers.0.bias f4 [128]
00000000: ee6f 613e c294 d03e 9f93 db3e 51f8 583f
00000010: 3b81 09bf 3a08 c4be c011 81be c1a5 00be
00000020: da24 b6be a6bb 213f 0e9b a5bd 232f ee3e
00000030: ed7d 633f 38b8 da3a 9a46 88be 1f32 183f
00000040: 96c9 19bf ad1a dabd c67a bcbd 3f27 91be
00000050: 605b 7d3c e88a 493e b48f 28bf 48f7 b3bd
00000060: 69ac 253e 3793 303f 629c 5ebd 530d febe
00000070: 830a f2be 129a af3e 844d b3be 37cf 14bf
00000080: b16f 9cbd e397 6fbe d082 423e fd77 763e
00000090: 7e86 b0be 46d8 e13c b0c0 97be ea35 aebe
000000a0: cd47 e03e 5cde f83e f418 a53e 7fee 1c3f
000000b0: 0f7c f63d c0df c33e 5527 523e ae56 6dbf
000000c0: 9776 3e3e f24d d2be 2c14 20bf 51ff 2c3f
000000d0: c2d5 253f 1329 9f3e 645b ef3d 3f30 21bf
000000e0: 4a39 19bf 3746 183f f6fd c13c b862 1e3f
000000f0: d705 1a3f 933e f7bd 6d2c 053e 8675 553e
00000100: 19e3 cbbe 6524 013f a100 05be 987d 0b3f
00000110: f37f 663e d5ea 35be 611e 1dbf ccd0 5bbf
00000120: b6ac b83e e802 a63c df95 ad3e 16c4 4ebf
00000130: 028c efbd d8a9 32bd b538 f53e 72b4 0f3f
00000140: 6684 a43b 24c5 cdbe 2d8b 27bf 994b dabd
00000150: a9d9 cc3e 7904 043f cc04 a43e 57d5 4fbe
00000160: 52be a73d bf32 773e 23af 073f 6167 a23e
00000170: dd89 90be b90f e13e 4e40 c2bd 4a31 9abe
00000180: db0f 06bf e034 aabe abe0 7e3e 7a04 46be
00000190: 3756 40b8 de1d 9e3c 5256 12bf 667f 3f3f
000001a0: 811d be3e 3afe 3d3f d0b6 cdbe 5b75 4abd
000001b0: 4ca8 373e 9709 b33d c7f4 3dbe 3aa7 8ebe
000001c0: 4b6a 28be b5cd cfbe dc83 8f3d 8f06 c63e
000001d0: 6726 f2bd b8d8 8dbd e989 96be 6cd8 413f
000001e0: ec5f 26bf 343c c83d 14ca bebe 8a0c 833d
000001f0: 10ad 00bf 3c9a d6be ee13 4a3f fe90 c13e
0.22015354 0.40738493 0.42886063 0.847539 -0.53712815 -0.38287526 -0.25208855 -0.1256323
-0.3557499 0.63176954 -0.08086215 0.46520337 0.8886402 0.0016686982 -0.26616365 0.5945148
-0.6007322 -0.10649619 -0.09203105 -0.28350255 0.01546368 0.19681895 -0.65844274 -0.087873995
0.1617905 0.6897463 -0.054348357 -0.4961954 -0.47273645 0.34297234 -0.35020077 -0.58128685
-0.07638491 -0.23397784 0.18995214 0.2406921 -0.3447761 0.027568948 -0.29639196 -0.34025508
0.4380478 0.48607147 0.322456 0.61301416 0.12035381 0.38256645 0.20522816 -0.9271039
0.18599926 -0.41075093 -0.6253078 0.6757708 0.64779294 0.31086025 0.11687353 -0.6296424
-0.5985304 0.5948214 0.023680668 0.6186938 0.6016516 -0.12072482 0.13005228 0.20845613
-0.398217 0.5044616 -0.12988521 0.54488516 0.22509746 -0.17765363 -0.6137448 -0.85865474
0.36069268 0.020265058 0.33903405 -0.80767953 -0.11696626 -0.043619007 0.47894827 0.5613471
0.005020666 -0.4018947 -0.6544674 -0.1065895 0.40009812 0.51569325 0.3203491 -0.20296226
0.081905976 0.24140452 0.5300161 0.31719497 -0.2823018 0.43957308 -0.094849214 -0.3011573
-0.52367944 -0.33243465 0.24890392 -0.19337645 -4.585666e-05 0.019301351 -0.57162964 0.7480377
0.37131885 0.74216044 -0.40178537 -0.049428325 0.17935294 0.087420635 -0.18550406 -0.2786196
-0.16446798 -0.4058663 0.07007572 0.3867688 -0.11823731 -0.069261014 -0.29402092 0.7572086
-0.64990115 0.09777108 -0.37263548 0.06398876 -0.5026407 -0.41914546 0.7893666 0.37805933

layers.2.weight f4 [128, 128]
00000000: fef9 4abd 12fd 04bd acfc 9dbd c974 73bd
00000010: 02ff 0e3d 81c7 1abd 0ca2 423d 9b5e 483d
00000020: e2d6 883d bff4 933b ad24 6ebc 4510 863d
00000030: 686a cf3d 39b9 353c 67fb 1f3d 77f3 7f3d
00000040: befc c33c dcc7 3bbd c3b0 763c 7150 3ebd
00000050: 144f 28bd a947 65bd 0881 493d 6493 8fbb
00000060: 8b1a 07bd 6df5 0e3d 6e27 533d e39f d9bc
00000070: 0555 95ba 087c 993d a199 34bd 1a07 12bd
00000080: 24e4 b23d fb70 843d ec8d d2bc bc19 abbc
00000090: 60a0 59bd d3c5 4b3d 198d d6bc ad4e 07bd
000000a0: 198a abbb 1d93 5abd d1a8 64bd 7cab 243c
000000b0: cd0e 853d a35d 87bd f12b 38bd b736 d63c
000000c0: 0966 963d cc20 8d3d dbb8 623d d674 a7bd
000000d0: 2e9d 92bd 4554 233d 45ed 95bd cffd 7fbc
000000e0: 926f c23b a9ed 553d fc74 913b 4784 3bbd
000000f0: c78a 433d 30fe 9dbd 1b35 883d dfa0 b8bc
00000100: 05ef f5bc 9a8f ddbc fa86 04bd 8293 8cbd
00000110: 169b 783c 0c7c 8cbd 1fd0 0c3c af85 6c3a
00000120: 29c5 883d df5e 393d 200d a2bd 7284 f1bc
00000130: f947 40bd 975d 683d 4155 babc 7f75 9ebd
00000140: 97cb c53d 6c5f 2dbd eac1 04bd d262 32bd
00000150: a73d a63c 8771 703d 9137 ae3d 5a89 0fbd
00000160: ff2d 803c 48c8 833d 15ad 29bd 9089 d33d
00000170: d6a8 9a3d 801e a63c 2f76 43bc b688 923d
00000180: a375 b83c d2d4 a03a 8d4a 11bd d441 a1bd
00000190: 6a3e 533d d214 16bd 89ea cbbb 3d17 44bc
000001a0: 5bd0 273d ce26 83bc 3bf0 9ebd e9f2 7fbd
000001b0: 86d6 bb3d ffb5 2e3d cdb9 13bb ae8b a13d
000001c0: fe43 6e3d 0214 bcbd 7c2b 1a3d 764d f23b
000001d0: 7a1f 37bd 6d92 cdbc 02c2 0d3d e652 6ebc
000001e0: 5695 92bc 0a4f 79bd 5acd 623d a788 89bd
000001f0: 15df fb3c e573 193d 657a 4b3d b2ae a9bd
00000200: f0c0 a0bd 9a5c c5b9 edcd 443d 4e1a b23d
00000210: 88a6 bcbd 8aa4 3bbd c1d0 ca3d 00d1 bfbd
00000220: a171 953d 8f6f 19bc 1463 8e3d b4d0 323d
00000230: b25e af3c 3ab0 a4bd 90ce 353d 115e 393d
00000240: 78e0 293c 08a9 8a3c 955b d63c b4ea 243d
00000250: 1183 3abd 12fc 8dbc 26b2 71bd 4b9c 8abd
00000260: 61c3 2c3b fe08 88bd 89bb 7fbd 69a1 0f3d
00000270: d020 e03c ba9c 7e3d f9be 013d 9da0 f9bd
00000280: c9f4 4fbd b2f8 863c bc56 aa3d 4b96 b4bd
00000290: 254b b4bd 1a00 94bd e119 7f3d fefb 81bd
000002a0: 6f1c 523d 090c 833d 9c22 3f3d 2cb1 c43d
000002b0: f2c8 ab3d 5d3b bc3d 733d b43c d5c5 c03d
000002c0: c400 d93d 68bc 563d e8a0 bfbc 5cec c73b
000002d0: 87f0 30bd cdbe ff3c 5463 a13d 2692 713d
000002e0: 6e21 90bd 9df3 2f3d 6458 273d 0261 62bc
000002f0: a88e 8dbd 70fb 9bbd a8b5 88bd 236a aabd
00000300: 3761 653b 6089 913d 4007 3ebd 0c39 093d
00000310: fc00 c43c 9051 8e3c 972e 2b3d 797e e1bc
00000320: 0e83 4e3b 8e6b a73c 8d32 8cbc 4f70 e23c
00000330: 8b80 0abd 5b61 543c 5880 73bc 4c3f 9e3d
00000340: c679 7cbd 26f2 6f3d 1d3e 7d3d 4c3a 5cbd
00000350: f2ac 953c 68d8 65bb 9659 eabd a5db 87bd
00000360: 836e 8ab9 0dd9 5cbd afed ab3c 71f0 8dbc
00000370: 3dee f53c 601f 203d 2815 8bbd 945e 0fbb
00000380: 34ee ce3c 3a9d 19bd c4ad 123d 4edc 823d
00000390: d9fb 5ebc e333 42bd 5381 2fbd 7175 0dbd
000003a0: e017 863b ea6d 58bc d6de 0b3d ec74 4b3c
000003b0: cb0e a13c 5086 a03d 5d43 4d3d bb3c b5bc
000003c0: 1e99 033d 4413 bcbd 4532 fabc 17ab 4dbd
000003d0: 5a75 21bd 1435 d1bd 2615 bbbd 81c6 043d
000003e0: 42be e0bc fbf2 56bd 5b0f eebd 2702 153d
000003f0: 10af 1fbd 4508 89bd 906a 013e a5c5 e73d
-0.049554817 -0.03246791 -0.07714209 -0.059437547 0.034911163 -0.037787918 0.04751782 0.048918348
0.06681611 0.00451526 -0.014535111 0.06546072 0.10127717 0.011091524 0.039058115 0.062488046
0.023924228 -0.045844898 0.015056792 -0.046463434 -0.04109104 -0.055976544 0.04919532 -0.004381584
-0.032984298 0.034902025 0.051551275 -0.026565498 -0.0011393136 0.0749436 -0.044091824 -0.035651304
0.087349206 0.06466862 -0.02570244 -0.020886295 -0.05313146 0.049749207 -0.026190327 -0.033034015
-0.0052349684 -0.053362954 -0.05582506 0.010050651 0.06496964 -0.06609657 -0.04496378 0.026149137
0.073436804 0.06891021 0.055352073 -0.081765816 -0.07158886 0.039875288 -0.07320646 -0.0156244775
0.0059337104 0.052228604 0.0044389945 -0.045780446 0.04773977 -0.07714498 0.06650754 -0.022537647
-0.0300212 -0.027046014 -0.032355286 -0.068640724 0.015173694 -0.068595976 0.008594542 0.0009022606
0.0667823 0.04525649 -0.0791266 -0.0294821 -0.04694364 0.05672988 -0.02274573 -0.07737254
0.09657972 -0.04232733 -0.032411493 -0.043551274 0.02029307 0.058702018 0.08506692 -0.035043098
0.015646933 0.06434685 -0.04142483 0.10328972 0.07551734 0.020278215 -0.011930033 0.07154982
0.022517031 0.0012270457 -0.035471488 -0.07873884 0.051573195 -0.03664095 -0.006223027 -0.011968431
0.040970188 -0.016009714 -0.07760664 -0.062487517 0.091717765 0.042654034 -0.0022541166 0.0788797
0.05817031 -0.09183504 0.037639126 0.007394488 -0.044707753 -0.025094235 0.03460885 -0.014546132
-0.017893475 -0.060866393 0.05537162 -0.067155175 0.030746022 0.03746404 0.04967727 -0.082852736
-0.078493 -0.00037643762 0.04804795 0.086964235 -0.09211451 -0.045811214 0.09903098 -0.093660355
0.072970636 -0.009364977 0.069524914 0.043656066 0.021407459 -0.08041425 0.044386446 0.045255724
0.010368459 0.016926304 0.026166717 0.040262893 -0.04553515 -0.01733211 -0.059007786 -0.06768092
0.0026361572 -0.0664234 -0.062434707 0.035066042 0.027359396 0.062161185 0.031676266 -0.12188838
-0.050770555 0.016476009 0.083173245 -0.088177286 -0.08803395 -0.07226582 0.06228054 -0.06346892
0.051296648 0.0639878 0.046663865 0.09604105 0.08387937 0.0919101 0.022001958 0.094127335
0.10595849 0.052425772 -0.023392156 0.0061011743 -0.043198135 0.03121891 0.078802735 0.05897727
-0.07037626 0.042956937 0.04085578 -0.013817074 -0.06911975 -0.07616317 -0.06675273 -0.08321025
0.0035000572 0.0710628 -0.046393633 0.03350167 0.02392625 0.017372876 0.04179248 -0.027526127
0.003151122 0.020437028 -0.017113948 0.027641444 -0.033813994 0.0129626645 -0.0148621425 0.07726917
-0.06163957 0.05858054 0.061826814 -0.053766534 0.018270943 -0.0035071615 -0.114428684 -0.06633691
-0.0002640375 -0.053917933 0.02098736 -0.017326565 0.030020827 0.03909242 -0.067911446 -0.0021876441
0.025260068 -0.03750346 0.035810247 0.06389676 -0.01360985 -0.047412764 -0.042847943 -0.03453583
0.0040922016 -0.013209799 0.03414806 0.012418013 0.019660374 0.07838118 0.05011307 -0.022123685
0.032128446 -0.09183362 -0.030541549 -0.050211992 -0.039418556 -0.10215202 -0.09134893 0.03241587
-0.027434472 -0.052477818 -0.116240226 0.036379006 -0.038985312 -0.066910304 0.12638307 0.113169946

layers.2.bias f4 [128]
00000000: 62c7 483d 07d6 903d ad31 4e3e 3e0b dfbd
00000010: a5d9 d3bc 3cfc 473e d759 653d 2236 c83d
00000020: 1797 373d 186e 113d 952e 023e 4d03 633d
00000030: 43cf 7cbd 22c7 5fbd 6d33 123e 5a79 ecbc
00000040: 77ac 023d 7a45 1cbc d85c 63bc 9f74 eebc
00000050: 1eff ae3d 5226 8b3d 0651 d73c d176 483b
00000060: 09bd 53bb 4c48 8b3d 81cc 653d cc89 d43b
00000070: 00f4 453e 0fc4 473e fed5 fd3b 7190 143d
00000080: 77fe b13d 66c1 86bd c05d 413d 411a bc3b
00000090: e9e2 aa3d 3e17 c73d 214f f7bc 76a1 163e
000000a0: dd74 84bc 09ea 083d a4a4 58bd 5990 27bb
000000b0: 132c 803d c81d 613d 44ed 3a3c 71a3 dfbd
000000c0: d298 57bd a881 7c3d b7f8 33be 3cea 43bd
000000d0: 4b17 1d3e f072 033e c7b8 ab3b 092b 8b3c
000000e0: 0d9d 1fbd c7f4 ff39 57a8 04bd 2cff d53d
000000f0: 1de6 ab3d c39e 8b3d f577 423b 0c6b d53d
00000100: 5442 443e a0f7 78bd 3c0c afbd 8d13 8ebd
00000110: 51a2 43bc 3f1c ba3c f19a ffbc 9173 8e3d
00000120: 8f91 e63d 7c55 7e3d d45b 613d 4db2 9c3d
00000130: 9784 d33d f876 313e 0004 6d3d 0d7d 19bd
00000140: 9902 0f3e 2c14 0dbd 8347 89bd 5c13 b2bc
00000150: 4456 8cbd 7a9a 5a3e fb99 c73d 6698 d93c
00000160: 721f 963d 1a92 82bd e92a 933d f7b4 bfbb
00000170: 0f13 71bd 457e 1d3e 852c 6d3e 3401 593d
00000180: 4555 573c 30b7 833d a5df 69bd ed7e 82bb
00000190: 3a89 193e a440 c6bd acae c83d d3f0 263c
000001a0: 8a3c d9bc 0a12 94bc 2291 de3d 22cf 06bc
000001b0: 68b8 833d ea6e 0e3d fbea 483c 8413 ad3c
000001c0: 9415 4cbd 6a0c 783d d4f2 9db9 a30e 743d
000001d0: 58bb 3f3e 3909 0b3e 7026 42bc 5ea2 543d
000001e0: 3903 743d 795e 9a3a f4d7 013e 3f1d 0e3d
000001f0: 4e26 513d 01cb 043e 24eb 9bbc 53e7 b63d
0.04901827 0.070720725 0.20136137 -0.10890816 -0.025860617 0.19529814 0.05599388 0.0977595
0.044821825 0.035505384 0.12713082 0.05542307 -0.061721098 -0.054633267 0.1427743 -0.028866459
0.031902757 -0.009538049 -0.013877116 -0.029108344 0.085447535 0.067944184 0.026283752 0.0030588398
-0.0032308719 0.06800899 0.056103233 0.006486153 0.1933136 0.19508384 0.007746457 0.036270563
0.086911134 -0.065798566 0.047208548 0.0057404344 0.08344061 0.0972123 -0.030189099 0.1471003
-0.016169006 0.03342632 -0.05289139 -0.0025568216 0.062584065 0.054960042 0.011409108 -0.10919846
-0.052635975 0.061647087 -0.17575346 -0.047830805 0.15340917 0.12836814 0.005240533 0.016988294
-0.038968135 0.00048819763 -0.032387104 0.10449061 0.083935 0.06817391 0.002967355 0.10420808
0.19165927 -0.06078303 -0.085472554 -0.06937323 -0.011940555 0.022718547 -0.031201812 0.06955636
0.11258232 0.062093243 0.055019215 0.07651196 0.10328024 0.17330539 0.057865143 -0.037472773
0.13965835 -0.034443066 -0.06703093 -0.021737747 -0.06852391 0.2134799 0.09746166 0.026561927
0.073302165 -0.06375523 0.07185919 -0.00585043 -0.058856066 0.15380199 0.23161514 0.052979663
0.013142888 0.064314246 -0.05709805 -0.003982416 0.14993754 -0.09680298 0.09798941 0.010189253
-0.026518125 -0.018075008 0.10867526 -0.008228095 0.06431657 0.034773745 0.012263055 0.02112747
-0.049825266 0.060558714 -0.00030126295 0.05958427 0.1872381 0.13577737 -0.0118499845 0.051912658
0.059573386 0.0011777423 0.12680036 0.03469586 0.05106192 0.12968065 -0.019033022 0.0893084

layers.4.weight f4 [2, 128]
00000000: afee 32bd 06fb 3abe 7211 a1be 8e5a 3c3d
00000010: 2da1 efbd cfd3 c23e 996d 45be fa03 0abf
00000020: ba36 c1be a464 f53c f38e 30be 7fd3 cd3d
00000030: 1766 393d ff80 26be 5f01 563d 8861 f3bc
00000040: 4850 20be 071e 05bd 0975 a4bd 8d79 c7be
00000050: 7eb6 143d 4122 313e bed0 293e 6706 d73b
00000060: 6160 80bd 62ca 493e 5fe6 bf3b 712b cb3e
00000070: c019 e83e 4754 86be 25ee 343e 08ff 17bd
00000080: 3774 e13d d9f3 b2bd f3a7 bfbe 8c22 3c3e
00000090: 8f4d b0bd b439 e5be 4f31 3b3e 4c89 a53e
000000a0: ed6a bebe 2b67 9d3e 5b58 033b 0047 953d
000000b0: 0740 d13d 127c 713e 7dc8 7b3d ae64 583e
000000c0: 53b8 cfbe c8d1 0ebf 60d1 283f bf54 27bd
000000d0: 09c6 043f e75d 143f 3bc3 7ebd 4d6a 2b3e
000000e0: aa46 e53d 9c62 babe f9d3 573d b67b 973e
000000f0: acb3 6abc 26a7 c23e 2d1b 6a3e e25f 113e
00000100: 0a2a 2a3e f522 4e3a dedb 97be eb4e 20be
00000110: 3e5b 873e 7d04 0b3f 0a4b d73d 6cc7 2e3e
00000120: b8f7 403f 54e8 953c 5eed 853e 8049 b0bc
00000130: 53df 1b3e 0dca e13c 45a6 263f 2db0 9ebd
00000140: 5344 943e bcb6 c1bc 4054 2d3d 24df eabd
00000150: 698b 543d cf48 9b3e 1fe1 ecbe 4386 5a3e
00000160: cfda 0dbd 6033 8f3c 4a70 76bc 4356 5bbe
00000170: 0b4e 323e f35f 39bf b4c2 84be c002 643e
00000180: 8f8c e03c c2cd 0fbf 7d87 aa3d 0ce6 7c3e
00000190: be20 99be b4ed ff3c e84c 9abe a7c4 26bd
000001a0: 77e2 fbbe a96a 08bd 4d44 6ebe 400d 2a3e
000001b0: d61b 453e ecdd 49be 836f 39be 716d 403e
000001c0: b6f1 e53c 8a50 99be f57b 993e 6470 a0be
000001d0: 2a8f f7be 2f23 9b3e 26e7 7e3d b3d9 cabe
000001e0: 40c8 aebe 52f2 a2be df0c 23bf fcc2 94bd
000001f0: 16ac d5bd e3cc 433f 6c6a 60be f360 c6be
00000200: c9ef 32be 1f17 4cbe 8e50 26bf 56e9 09bf
00000210: 1842 933e 1765 893e 3311 1f3d d7bf a7be
00000220: b5e1 3cbe 816c 9bbe 4374 b1be 90f6 bc3e
00000230: ad44 a9bc cecb a93c 13a3 a13e 356b 1ebe
00000240: 365f aa3e d039 b2bd 0927 32be 7ee2 65be
00000250: 8947 83be 1990 2abe 1f67 9f3e 75d1 8a3d
00000260: 0a7d 333c a25d 4ebe 0648 063f 4dac 243e
00000270: c05e 173f 7a4d 103f d81d adbe 22a1 c83e
00000280: ff99 1c3f 6c5e acbe 665f 1d3d d348 50bc
00000290: 0216 bc3d 1600 b33e b238 0ebe 72fb 11bf
000002a0: 6d03 da3d 5f97 cabe 6f8d d83e 5ab2 a1bd
000002b0: 7d7f 3b3e b654 773e 2116 ac3c 0559 c33e
000002c0: 9377 873e 3131 05be 0c02 c2be c8d5 92bd
000002d0: 73f4 373e 24d4 973e a55b e63e 0a95 18bd
000002e0: 3593 c63e c9d7 8dbb 09d0 bcbd d167 f93d
000002f0: 5426 31be 4359 64be 9638 403e 54af 1b3e
00000300: 1559 1cbf 3f22 9c3e 7376 113e a809 3a3e
00000310: b547 f53d 0656 d9be b4a9 e4be 97d3 623e
00000320: ea08 733e 5932 313e 94cf e2bd ebdf 243e
00000330: f095 0c3f 7c0c 193f a0d3 433d 095d 7fbe
00000340: 6909 c6be 6525 63bc 35a8 6ebe 5243 75be
00000350: 930f 9c3d 4d8b fc3e e5c4 9a3e 62fe b0bd
00000360: f23f c3be 4395 013d 2d18 a8be 35e4 d7bd
00000370: 6071 203e f46d 20bf 74f1 253f adf2 c0bd
00000380: e887 1ebe 0033 aebd bb15 de3e f92e 53be
00000390: ef90 223e 106a 093e db44 7dbe b149 ad3d
000003a0: 7e4d 483d f42c 36be 6792 48bd 6dac b33d
000003b0: d4b5 0fbf cc01 b33e 928a 59bb b58f 97be
000003c0: d270 b33d 847a bcbd 3603 83be ec8a d83d
000003d0: 0e81 0e3f b306 e4be d776 dd3d 6b29 bdbe
000003e0: eee5 653b 9e64 93be 37a4 05bf 63b7 933e
000003f0: c871 bc3e 2bc8 02be ae0a 043e a0ab f93e
-0.043684658 -0.1825982 -0.31458622 0.045984797 -0.11700664 0.38052222 -0.1928009 -0.5391232
-0.37737066 0.029955216 -0.17242031 0.10050105 0.045263376 -0.16260146 0.0522474 -0.029709592
-0.15655625 -0.03249934 -0.08030135 -0.38959923 0.03630685 0.17298223 0.16583535 0.0065620425
-0.06268383 0.19706109 0.00585632 0.3968158 0.45332146 -0.26236174 0.1766897 -0.03710845
0.11008494 -0.087379165 -0.37432823 0.18372554 -0.08608543 -0.44770586 0.18280528 0.32331312
-0.37190953 0.30742773 0.0020041678 0.07288933 0.1021729 0.23582485 0.061470497 0.21132156
-0.40570316 -0.5578885 0.6594448 -0.040852305 0.5186468 0.57955784 -0.062197905 0.1673977
0.11195119 -0.36403358 0.052692387 0.2958657 -0.014325064 0.3801815 0.22861929 0.14196733
0.16617599 0.00078634854 -0.29659933 -0.15655105 0.264368 0.54303724 0.105123594 0.17068261
0.7537799 0.01829926 0.2615766 -0.021519423 0.1522191 0.027562166 0.6509746 -0.077484466
0.28958377 -0.023646705 0.042316675 -0.11468342 0.051890764 0.30328986 -0.46265504 0.2134028
-0.0346325 0.017480552 -0.01504142 -0.21419625 0.17412584 -0.7241203 -0.25929797 0.22266674
0.027410774 -0.56173337 0.083266236 0.24697131 -0.29907793 0.031241275 -0.301368 -0.040714886
-0.49196216 -0.033304844 -0.23268242 0.16606617 0.192489 -0.19713563 -0.18108945 0.18791749
0.028069358 -0.2994426 0.29977384 -0.31335747 -0.48351413 0.3030028 0.06223216 -0.39619216
-0.34137154 -0.318255 -0.63691515 -0.07263753 -0.104332134 0.7648451 -0.21915597 -0.3874584
-0.17474283 -0.19930695 -0.64966667 -0.5387167 0.28761363 0.26834938 0.03883476 -0.3276355
-0.18445475 -0.3035622 -0.34659013 0.36906862 -0.02066263 0.020727064 0.31569728 -0.15470584
0.33275765 -0.08702433 -0.17397703 -0.22449681 -0.25640514 -0.16656531 0.31133363 0.06778232
0.010955105 -0.20152906 0.5245365 0.16081353 0.5912895 0.5636822 -0.3381183 0.39185435
0.6117248 -0.33665788 0.038421057 -0.012712675 0.09183885 0.34961003 -0.13888815 -0.570243
0.10645185 -0.39568612 0.42295405 -0.07895346 0.18310352 0.24153408 0.021006646 0.38153854
0.26458415 -0.13007046 -0.37892187 -0.07169682 0.17964344 0.29654038 0.44991794 -0.03725151
0.38784185 -0.004328702 -0.09219367 0.121780045 -0.17299777 -0.22299676 0.18771586 0.15203601
-0.6107343 0.30494878 0.14205341 0.18167746 0.11976568 -0.42448443 -0.44660723 0.22151028
0.23733869 0.17304362 -0.11074749 0.16101043 0.54916286 0.59784675 0.047809243 -0.24937834
-0.38679054 -0.013863896 -0.23306353 -0.23951462 0.07620158 0.49325028 0.30228344 -0.0864227
-0.38134724 0.031636488 -0.32830945 -0.10541574 0.15668249 -0.62667775 0.64821553 -0.09421287
-0.15481532 -0.08505821 0.43375954 -0.20623387 0.158756 0.13419366 -0.24733298 0.08461321
0.048902027 -0.17790586 -0.048967745 0.08773122 -0.5613682 0.34962308 -0.0033194167 -0.29601827
0.08761753 -0.092030555 -0.25588387 0.10573372 0.5566567 -0.4453636 0.108136825 -0.36945662
0.0035079676 -0.28787702 -0.52203697 0.2885085 0.36805558 -0.1277167 0.12894699 0.48763752

layers.4.bias f4 [2]
00000000: 8b78 8c3d aa0c cebd
0.06858929 -0.10061009
